tflite_model.tflite (tflite, 160704 bytes, 10 tensors)

sequential_3/conv2d_12/BiasAdd/ReadVariableOp f4 [80]
0	0xbe0eaaee	-0.13932392
1	0x3db96f63	0.090544485
2	0xb9b484f1	-0.00034431324
3	0xbd81fcc6	-0.06347041
4	0xbd27de89	-0.04098371
5	0xbc8b8114	-0.017029323
6	0x3ce7b715	0.028285543
7	0xbccc104b	-0.024910113
8	0xbdef215b	-0.11676284
9	0xbcb25649	-0.02176966
10	0xbc946247	-0.018113269
11	0xbd0bf583	-0.034169685
12	0x3bb2f0d4	0.005460838
13	0xbc19666d	-0.009362799
14	0x3da46f7a	0.08029075
15	0x3d795930	0.06087607
16	0xbd11f542	-0.035634287
17	0xbda63cc0	-0.08117056
18	0xbdbc3dc4	-0.09191468
19	0xbcc70bc1	-0.024297597
20	0xbcede337	-0.029039009
21	0xbc9bd92f	-0.01902446
22	0xbd4837b4	-0.048881248
23	0xbc0aab1d	-0.008463648
24	0x3e0b575f	0.13607548
25	0xbe610a03	-0.21976475
26	0xbdaf37dc	-0.08555576
27	0xbd821c21	-0.063530214
28	0xbd7c2cb4	-0.06156607
29	0xbd96c60c	-0.07361993
30	0x3e14cc45	0.14531048
31	0xbdbd7eb0	-0.09252679
32	0xbdd2be7e	-0.1029024
33	0xbd261e86	-0.040556453
34	0x3e538ddd	0.20659585
35	0xbdafa5b4	-0.08576527
36	0x3cf80e79	0.030280339
37	0xbee7d5c6	-0.45280284
38	0xbbfb995e	-0.007678195
39	0xbeb059ac	-0.34443414
40	0x3e057b5d	0.1303534
41	0x3bd7ba61	0.0065834974
42	0xbcec0225	-0.028809616
43	0x3d59a6f4	0.053137735
44	0x3d84384f	0.064560525
45	0xbdee45e1	-0.11634422
46	0xbe0797c7	-0.13241492
47	0xbe16669f	-0.14687584
48	0xbd48ae24	-0.0489942
49	0xbd8cf1be	-0.06882046
50	0x3cfe1b78	0.031018957
51	0x3c89f304	0.016839512
52	0x3d01dd67	0.031705286
53	0x3d4bd9b3	0.04976816
54	0x3e1df13e	0.15424058
55	0x3df25f9f	0.118346445
56	0xbcdc9d7a	-0.02693056
57	0xbdaa7687	-0.083233885
58	0x3d3ddf22	0.046355374
59	0xbe2c25f1	-0.16811348
60	0x3c88f481	0.016718151
61	0xbdd2d775	-0.102950014
62	0xbbbc3902	-0.0057441005
63	0xbd68b25f	-0.056810733
64	0xbec8989c	-0.39178932
65	0x384c1baf	4.8663172e-05
66	0xbd4f4dde	-0.05061137
67	0xbe0b782d	-0.13620062
68	0xbe639d14	-0.2222789
69	0x3d17d9b2	0.037072845
70	0x3d54b8d9	0.051934097
71	0xbcbb4ed1	-0.022864731
72	0xbe184c1c	-0.14872783
73	0xbd97b1e3	-0.07406976
74	0xbcfb2a70	-0.030659884
75	0xbc6dea12	-0.014521139
76	0xbcad3277	-0.021142228
77	0xb98b8653	-0.00026612225
78	0x3d018e1d	0.03162967
79	0x3e117a79	0.14206876

sequential_3/conv2d_13/BiasAdd/ReadVariableOp f4 [40]
0	0x3e1b72c7	0.15180503
1	0xbddeddde	-0.108821616
2	0xbd0bfe90	-0.034178317
3	0xbd1713d6	-0.03688415
4	0xbe2ede0d	-0.17076893
5	0xbd0b0cfd	-0.033947933
6	0x3d6ea4ee	0.058262758
7	0x3e09d68a	0.13460746
8	0xbd92bbd6	-0.07164733
9	0xbd2a049e	-0.04150831
10	0xbd2a771e	-0.041617505
11	0xbdac042f	-0.083992355
12	0xbe49e04c	-0.19714469
13	0xbd1b1115	-0.037858088
14	0xbd2d74c8	-0.0423477
15	0xbd59c994	-0.053170756
16	0xbc9bf2f4	-0.019036748
17	0xbdcc4553	-0.0997416
18	0xbe42d7ca	-0.1902763
19	0xbcf1164e	-0.029429581
20	0x3cfcab0c	0.03084328
21	0x3c077707	0.008268124
22	0xbe51ee51	-0.20501067
23	0xbd2fe92e	-0.042946987
24	0xbd494e73	-0.04914708
25	0xbcf7d3f2	-0.03025243
26	0xbdf0feb4	-0.11767331
27	0xbd3df14e	-0.046372704
28	0x3db4b4cd	0.088235475
29	0xbd2e1574	-0.042500928
30	0x3d99f6c3	0.07517769
31	0xbe4015fd	-0.18758388
32	0xbd1f899c	-0.038949594
33	0xbd24aa97	-0.04020175
34	0xbd2e9ddb	-0.04263101
35	0xbcef9647	-0.029246463
36	0xbcc601de	-0.024170812
37	0xbce5a47b	-0.028032532
38	0xbd122d87	-0.03568795
39	0xbd3d8393	-0.046268057

sequential_3/conv2d_14/BiasAdd/ReadVariableOp f4 [20]
0	0xbd603e78	-0.054747075
1	0xbd2a9538	-0.041646212
2	0x3e09aa4f	0.13443874
3	0x3d8e9849	0.0696264
4	0x3d388552	0.04504902
5	0xbd51b2f4	-0.051196054
6	0xbccee676	-0.025256377
7	0xbd1918e8	-0.037377268
8	0xbd18bc0b	-0.037288707
9	0x3e32114f	0.17389415
10	0x3d726f07	0.059187915
11	0xbd83cf34	-0.06436005
12	0xbd738a64	-0.05945815
13	0xbda18cc8	-0.0788818
14	0xbd229c2a	-0.03969971
15	0xbd465274	-0.048418477
16	0x3d975f10	0.073911786
17	0xbd394f22	-0.045241483
18	0x3e853e53	0.26024112
19	0x3e9c5b69	0.3053849

sequential_3/conv2d_12/Conv2D f4 [80, 3, 3, 3]
0	0xbe0d9b15	-0.1382869
1	0xbc8fdaff	-0.01756048
2	0xbd5cd70c	-0.053916022
3	0x3cd9857b	0.026552906
4	0x3d8c0238	0.06836361
5	0x3d48879e	0.04895746
6	0xbd0b2e9b	-0.033979993
7	0x3d1f88f5	0.03894897
8	0xbc319c37	-0.010840467
9	0xbe175509	-0.14778532
10	0xbc26ea0d	-0.010187638
11	0xbde441cc	-0.11145362
12	0xbe2536e7	-0.16134225
13	0xbb97d4d1	-0.004633524
14	0xbe04af4c	-0.12957495
15	0xbdf3218f	-0.11871635
16	0xbc9532f9	-0.018212782
17	0xbde0d368	-0.109778225
18	0xbd8f10d7	-0.06985634
19	0xbdb80f5b	-0.08987304
20	0x3d252573	0.040318917
21	0xbe2f559e	-0.17122504
22	0x3cbaa30c	0.022782825
23	0x3cb89e09	0.022536295
24	0xbd3589ec	-0.044320986
25	0x3d1f7f2c	0.03893964
26	0x3d4b6abd	0.04966234
27	0xbb892d45	-0.0041863048
28	0x3cd2beca	0.025725741
29	0xbe2fef31	-0.17181088
30	0xbd3643d6	-0.044498287
31	0xbe062609	-0.13100447
32	0xbe0fdf4a	-0.14050022
33	0xbddd6e48	-0.1081205
34	0xbcd520ce	-0.026016619
35	0xbd87fb81	-0.066397674
36	0x3de826f8	0.11335558
37	0x3db10203	0.08642962
38	0x3d6ff187	0.058579948
39	0x3d9b4fd9	0.07583589
40	0x3e0e6732	0.13906553
41	0x3e2d495b	0.16922514
42	0x3e2b0132	0.16699675
43	0x3d935b04	0.07195094
44	0x3e4cd4dd	0.20003076
45	0xbdf9c7a8	-0.121962845
46	0xbe90807c	-0.28223026
47	0xbd6ed447	-0.058307912
48	0xbe896b05	-0.26839462
49	0xbef37df9	-0.47557047
50	0xbe150de9	-0.14556088
51	0xbe9abca6	-0.30222052
52	0xbedbceb3	-0.42931136
53	0xbdd1ae7c	-0.102383584
54	0xbe3419b8	-0.17587936
55	0x3bcfd8bb	0.006342975
56	0xbcf0dc45	-0.029401908
57	0x3dbb38af	0.09141671
58	0x3e2b9890	0.16757417
59	0x3d60b6c4	0.0548618
60	0xbdd1c3fe	-0.10242461
61	0xbdf70d8e	-0.12063132
62	0xbd36da7f	-0.044641968
63	0xbdb649be	-0.08900784
64	0xbd821c7d	-0.0635309
65	0xbdfae00d	-0.122497655
66	0x3e1be7bc	0.15225118
67	0x3de24530	0.11048353
68	0x3e26b457	0.16279732
69	0xbd690c18	-0.0568963
70	0xbe330ba1	-0.17484905
71	0xbe484f4d	-0.19561501
72	0xbe47bf7a	-0.19506636
73	0x39ec902b	0.0004512084
74	0xbd8a8a68	-0.0676468
75	0x3dc86a81	0.09785939
76	0x3d8bb802	0.06822206
77	0x3d591f10	0.05300814
78	0x3b67cdb2	0.0035370407
79	0xbdba0855	-0.090836205
80	0xbdd8cafa	-0.1058559
81	0xbe1d1233	-0.15338974
82	0xbb5e3c40	-0.0033910424
83	0x3dafeb29	0.08589775
84	0xbd5c8246	-0.053835176
85	0xbde47b43	-0.11156323
86	0xbddadb1d	-0.10686324
87	0xbd3b985b	-0.045799594
88	0x3d366c2c	0.044536754
89	0xbdb86912	-0.090044156
90	0xbe163db1	-0.14671971
91	0xbc684562	-0.014176698
92	0x3d982951	0.074297555
93	0xbc96ce41	-0.018408896
94	0xbdc618a1	-0.09672666
95	0x3dc9f1b6	0.09860556
96	0x3d8351ef	0.06412112
97	0x3e272721	0.1632352
98	0x3e2840e2	0.16431001
99	0x3e42d1b4	0.19025308
100	0x3e7498de	0.23886439
101	0x3e1757e8	0.14779627
102	0xbeb1e2f0	-0.34743452
103	0xbec9b97b	-0.39399323
104	0xbe811f72	-0.25219303
105	0x3d7a6c07	0.06113818
106	0xbd88b89b	-0.06675836
107	0x3b926374	0.004467422
108	0xbe80be75	-0.25145307
109	0xbe6e9be6	-0.23301658
110	0xbe249f3e	-0.16076371
111	0x3e3d56cb	0.1849014
112	0x3e088583	0.1333218
113	0x3e3f8c5a	0.18705884
114	0xbcd73701	-0.026271345
115	0xbe114989	-0.14188208
116	0xbdc32048	-0.095276415
117	0xbe78f941	-0.24313833
118	0xbe8e0ac5	-0.27742592
119	0xbd9cd306	-0.07657437
120	0x3e067466	0.1313034
121	0x3caf8375	0.021424988
122	0x3ddb5af6	0.10710709
123	0x3d900c75	0.07033626
124	0xbccbf480	-0.02489686
125	0x3d81bcc4	0.06334832
126	0x3e140649	0.14455523
127	0x3d9f48b0	0.07777536
128	0x3e239cfb	0.15977852
129	0xbe109e9b	-0.14123003
130	0xbd82c96c	-0.063860744
131	0xbe3709b3	-0.17874794
132	0x3c0557a0	0.008138567
133	0xbbb2cba9	-0.005456407
134	0xbca4dd6f	-0.020125119
135	0xbe1858d3	-0.14877634
136	0xbdebe1fb	-0.11517712
137	0xbe082d58	-0.13298547
138	0xbcfeb2dd	-0.031091148
139	0x3d2f702b	0.04283158
140	0x3c8e2ea9	0.017356234
141	0x3e1edd3a	0.15514079
142	0x3db6e251	0.08929885
143	0x3e091696	0.13387522
144	0xbe663f2f	-0.2248504
145	0xbe4cd9cd	-0.2000496
146	0xbe92092a	-0.28522617
147	0x3d37e295	0.04489382
148	0x3c5cf40f	0.0134859225
149	0x3d83c9be	0.06434964
150	0x3e5964a4	0.21229798
151	0x3e1c37dc	0.15255684
152	0x3e51ed61	0.20500709
153	0x3e05e043	0.1307383
154	0x3e3d43cf	0.18482898
155	0x3e21e78a	0.15810981
156	0xbe318757	-0.17336784
157	0x3ce0ac37	0.027425868
158	0xbe296d65	-0.16545637
159	0xbda35e44	-0.07976964
160	0x3cf377f0	0.029720277
161	0xbda974bf	-0.08274221
162	0x3ceeac4b	0.02913489
163	0xbd3b58a8	-0.045738846
164	0x3d6a9fca	0.057281293
165	0x3d25e9ad	0.040506054
166	0xbe4290e6	-0.19000587
167	0xbdc6592a	-0.096849754
168	0xbcea1467	-0.028574182
169	0xbd8d9f2d	-0.06915126
170	0x3cff681c	0.031177573
171	0x3d458c32	0.048229404
172	0xbdd8dcab	-0.10588964
173	0x3da80958	0.08204907
174	0xbf0ca1d8	-0.54934454
175	0xbf35ffb5	-0.710933
176	0xbec6ccba	-0.3882807
177	0xbe80f440	-0.25186348
178	0xbed65290	-0.41859865
179	0xbe59ec8d	-0.21281643
180	0x3c0d6552	0.008630114
181	0x3d5c1191	0.05372769
182	0x3ddba12c	0.107241005
183	0x3dac1df6	0.08404152
184	0xbba2637b	-0.0049557067
185	0x3e080a5c	0.13285202
186	0x3d1fbe6a	0.038999952
187	0x3d6a72a9	0.057238255
188	0x3e05d81e	0.13070723
189	0xbce3e06f	-0.02781698
190	0xbdca9903	-0.09892466
191	0x3cf273ee	0.029596295
192	0xbdaa7225	-0.083225526
193	0xbdaca459	-0.08429784
194	0xbda3250f	-0.07966053
195	0xbda7ec57	-0.08199375
196	0x3d84aac7	0.06477886
197	0xbdae7676	-0.085186884
198	0x3c16d7e7	0.009206749
199	0x3d5a52e8	0.05330172
200	0xbd3b98ed	-0.04580014
201	0x3d1a255c	0.037633285
202	0xbd292b9e	-0.041301362
203	0xbcd28730	-0.025699228
204	0xbdee7197	-0.11642759
205	0x3c2f40be	0.010696588
206	0xbd8f7298	-0.07004279
207	0xbd90fe51	-0.07079757
208	0xbdf5894b	-0.11989077
209	0xbe020bfe	-0.12699887
210	0x3d0c2b6c	0.034221098
211	0xbc2c60de	-0.010521142
212	0xbded867b	-0.11597916
213	0xbc46c1fc	-0.01213121
214	0xbd130329	-0.035891686
215	0xbda3af56	-0.07992427
216	0x3e16df6c	0.14733666
217	0x3de9d9c2	0.11418487
218	0x3e11037d	0.14161487
219	0xbe0559cd	-0.13022538
220	0xbd9ec29b	-0.07751962
221	0xbe3079ee	-0.17234012
222	0xbd2697ad	-0.040671993
223	0xbd9eab19	-0.07747478
224	0x3d3652cf	0.044512566
225	0x3e37fcaf	0.17967485
226	0x3b4bb8bf	0.003108546
227	0x3d1fb886	0.038994335
228	0xbe92cf9a	-0.28674012
229	0xbe9c27c9	-0.30499104
230	0xbe449262	-0.19196466
231	0x3d01a588	0.031652004
232	0x3e13d501	0.14436723
233	0x3de054c1	0.109536655
234	0x3e41c31e	0.18922088
235	0x3e14396e	0.14475033
236	0x3deb7e99	0.11498756
237	0x3e049ad6	0.1294969
238	0x3d0ec2cc	0.03485374
239	0x3e0d9792	0.1382735
240	0xbe57c804	-0.21072394
241	0xbe6d5818	-0.23178136
242	0xbe05edbe	-0.13078973
243	0x3dd36672	0.10322274
244	0x3d5b2009	0.053497348
245	0x3d5b4e4b	0.053541463
246	0x3d55ab4a	0.052165307
247	0xbd86604c	-0.06561336
248	0xbc074e8a	-0.008258471
249	0xbdc4d450	-0.09610808
250	0xbdd614cd	-0.10453186
251	0xbdf43b45	-0.11925367
252	0xbdd5381a	-0.10411091
253	0x3cc455c1	0.023966672
254	0x3c4dff62	0.012573095
255	0xbd9863d1	-0.074409135

sequential_3/conv2d_13/Conv2D f4 [40, 3, 3, 80]
0	0xbd70f8b6	-0.05883094
1	0xbea416bc	-0.32048595
2	0xbd282cc0	-0.041058302
3	0xbc6a869a	-0.014314318
4	0xbef3b743	-0.47600755
5	0x3e78cd62	0.24297097
6	0xbe7bdea3	-0.24596648
7	0xbd290860	-0.041267753
8	0xbeb61e0f	-0.35569808
9	0xbdde14a3	-0.1084378
10	0x3e5e5413	0.2171176
11	0xbd497fed	-0.049194265
12	0xbcdf5c44	-0.027265675
13	0x3e4ca795	0.19985802
14	0xbe143a57	-0.1447538
15	0xbed49f96	-0.41528004
16	0x3d960b41	0.07326365
17	0xbd0e599f	-0.034753438
18	0x3d8af447	0.067848735
19	0xbd5a0fa0	-0.053237557
20	0xbd211c78	-0.03933379
21	0xbdabca9a	-0.083882526
22	0xbd47a317	-0.04873952
23	0x3e52ea7c	0.20597261
24	0x3c83ca06	0.016087543
25	0xbdd17d4e	-0.10228978
26	0xbef62dfb	-0.48081955
27	0xbea2f7c7	-0.31829664
28	0xbe923595	-0.28556505
29	0xbd1d962a	-0.038473286
30	0x3df22a08	0.11824423
31	0x3cd21f3a	0.025649656
32	0x3d483238	0.048876017
33	0xbda71cd2	-0.08159794
34	0x3a77a065	0.0009446203
35	0xbd1e27a8	-0.038612038
36	0xbe7f774d	-0.24947853
37	0xbe0a7032	-0.13519362
38	0x3b189cf9	0.0023286922
39	0xbe5853ac	-0.21125668
40	0xbe5bf4c3	-0.21480088
41	0xbd33edc8	-0.043927938
42	0x3d21a118	0.03946027
43	0x3d51b7a2	0.051200517
44	0xbebd3abe	-0.3695888
45	0xbdd35acd	-0.10320053
46	0xbdafa495	-0.085763134
47	0xbd8cce44	-0.068752795
48	0xbdb1927f	-0.0867052
49	0xbce52715	-0.027972737
50	0x3da995e9	0.08280546
51	0xbd43fa09	-0.047845874
52	0xbeacad6f	-0.3372607
53	0xbeaf43bb	-0.34231362
54	0xbdad287e	-0.08454989
55	0x3dbf2eec	0.093351215
56	0xbdaab5a4	-0.083354264
57	0xbd8a58c8	-0.06755215
58	0x3dbabfa8	0.09118587
59	0xbe3dd4ab	-0.18538158
60	0x3df86003	0.12127688
61	0xbd2b11bf	-0.04176497
62	0x3eb2cf6a	0.3492387
63	0xbd4b7471	-0.049671594
64	0xbe8422fb	-0.25807938
65	0xbdcdd749	-0.10050828
66	0xbde6865c	-0.11256096
67	0xbc15041b	-0.009095217
68	0xbdc1e44b	-0.094673716
69	0xbccb6f37	-0.024833305
70	0xbe586ca3	-0.21135192
71	0xbd0d7815	-0.034538347
72	0x3e4f6a7f	0.20255469
73	0xbdcc3299	-0.09970588
74	0xbd40667a	-0.04697273
75	0xbd300bbb	-0.042979937
76	0xbd3166ba	-0.04331086
77	0xbe37afaa	-0.17938104
78	0x3d8bebe3	0.06832101
79	0xbe774af0	-0.2414968
80	0xbcc3707c	-0.023857348
81	0xbee31576	-0.4435231
82	0xbcebb3f0	-0.028772324
83	0x3de1531a	0.110021785
84	0xbc96791a	-0.018368293
85	0x3e29d2e0	0.16584349
86	0xbd9640a7	-0.0733655
87	0x3cdf493f	0.027256606
88	0xbe94c75c	-0.2905835
89	0xbd6118d9	-0.054955337
90	0xbe2afe51	-0.16698577
91	0x3df9a410	0.121894956
92	0x3e13b098	0.14422834
93	0xbe33a3f2	-0.17543009
94	0x3e3a2b07	0.18180476
95	0xbe8c2f33	-0.2737976
96	0xbc338485	-0.010956888
97	0xbb098e89	-0.0020989499
98	0xbdc3636f	-0.0954045
99	0xbe1a5a2c	-0.1507346
100	0xbcb985f4	-0.022646882
101	0xbcab839e	-0.020936783
102	0xbd087a9f	-0.033320066
103	0xbea54c6f	-0.32284877
104	0x3e3d7898	0.18503034
105	0xbdca2fd5	-0.098724045
106	0xbee6e619	-0.45097426
107	0xbe99f69e	-0.30070966
108	0xbd758377	-0.059939828
109	0xbd14aa47	-0.0362952
110	0x3c8538f6	0.016262513
111	0xbedb9999	-0.42890623
112	0x3d380f59	0.04493651
113	0xbd6d0150	-0.05786258
114	0x3e443fad	0.19164915
115	0xbc23c902	-0.0099966545
116	0xbd8842eb	-0.066533886
117	0xbe49921a	-0.1968464
118	0x3deb72cf	0.114965074
119	0x3e3d05a8	0.18459189
120	0x3bb1fa70	0.005431466
121	0x3d8a9aa4	0.067677766
122	0xbdd6bf5a	-0.10485716
123	0x3db49417	0.088173084
124	0xbdcc3fd3	-0.09973111
125	0xbeec94df	-0.4620733
126	0x3e0e4dab	0.13896815
127	0xbe1db7c7	-0.15402137
128	0xbd049164	-0.032365218
129	0xbb4baaa2	-0.0031077047
130	0x3d118d33	0.03553505
131	0xbbf08afd	-0.0073407874
132	0xbdedff29	-0.116209336
133	0xbd9c1e3a	-0.07622953
134	0x3db193d7	0.08670776
135	0x3e50c086	0.20385942
136	0xbe00ff1a	-0.12597314
137	0x3d3efdbf	0.04662871
138	0xbc976207	-0.01847936
139	0xbe01b289	-0.12665762
140	0xbc6f498f	-0.01460494
141	0xbca66628	-0.020312384
142	0x3ce41f80	0.027847052
143	0x3e6801eb	0.22656982
144	0xbe0ae927	-0.13565503
145	0x3e13d794	0.14437705
146	0xbdfbff86	-0.123045966
147	0xbd868179	-0.06567664
148	0x3c433a43	0.011915746
149	0xbd17f01f	-0.03709423
150	0xbcabeea3	-0.020987814
151	0x3cf1c08c	0.029510759
152	0xbe366875	-0.17813285
153	0x3d7b55bb	0.061361056
154	0x3ca0da09	0.019635217
155	0xbe2cd320	-0.16877413
156	0xbd58ae15	-0.052900393
157	0x3d88c45e	0.06678079
158	0x3e115703	0.14193349
159	0xbded6426	-0.115913674
160	0x3d907deb	0.07055267
161	0xbeb59e49	-0.35472324
162	0xbda413f5	-0.08011619
163	0xbdabe978	-0.0839414
164	0xbcc47fe2	-0.02398676
165	0xbe33cb41	-0.17558004
166	0xbe317c4d	-0.17332573
167	0x3dc2a3a5	0.09503869
168	0xbf0409a0	-0.51577187
169	0x3d147337	0.03624269
170	0x3decf78a	0.11570652
171	0x3d43aa85	0.047770042
172	0x3dcf6842	0.101273075
173	0x3d931de3	0.07183435
174	0x3e68f2e0	0.227489
175	0xbef3e678	-0.4763677
176	0xbd8920e3	-0.06695726
177	0xbd90c0af	-0.070680015
178	0x3ddfc460	0.109261274
179	0xbe2da808	-0.1695863
180	0xbbb178fd	-0.0054160343
181	0x3d77cdfe	0.060499184
182	0xbd8667ea	-0.06562789
183	0xbe0501f2	-0.12989023
184	0x3e3ebcbf	0.18626688
185	0xbd331cb6	-0.043728553
186	0xbd501c80	-0.05080843
187	0x3dc67a54	0.09691301
188	0x3d94a9c2	0.07258941
189	0xbda2b33f	-0.07944345
190	0x3db1551a	0.0865881
191	0xbe8686e3	-0.26274785
192	0xbaf79b4c	-0.0018890887
193	0x3c391ced	0.0112984
194	0x3e47dc9f	0.19517754
195	0x3ded0678	0.115734994
196	0xbe114063	-0.14184718
197	0xbdb01726	-0.08598165
198	0xbc67919a	-0.014133835
199	0x3dc4f162	0.096163526
200	0xbe0e8026	-0.13916072
201	0xbe528278	-0.20557582
202	0x3dead28f	0.11465942
203	0x3d6a2542	0.057164438
204	0xbe4d0d80	-0.20024681
205	0xbf030129	-0.51173645
206	0xbd6d17a7	-0.057883885
207	0x3cb080ea	0.021545846
208	0x3d7de121	0.061982278
209	0xbd7529d7	-0.059854355
210	0xbde51a61	-0.11186672
211	0xbe60c0df	-0.21948574
212	0xbe82a275	-0.2551457
213	0xbe96dc2b	-0.2946485
214	0x3b987b15	0.0046533444
215	0x3d8861b4	0.066592604
216	0x3d7e6df3	0.062116574
217	0xbd06c851	-0.03290588
218	0x3d9f5e8f	0.077817075
219	0xbee530b0	-0.44763708
220	0x3db8c3fe	0.090217575
221	0x3d886432	0.06659736
222	0xbe1078cf	-0.14108585
223	0xbe405d52	-0.18785599
224	0xbd1cce5c	-0.038282737
225	0x3e648b76	0.22318825
226	0xbe57354b	-0.21016423
227	0xbb29e2f6	-0.0025922633
228	0x3bb53ea5	0.0055311495
229	0xbdb7889f	-0.08961605
230	0xbb6f2dc7	-0.0036495791
231	0xbd07080a	-0.03296665
232	0xbebd73f3	-0.37002525
233	0xbc9622d3	-0.018327152
234	0x3d80f0e4	0.06295946
235	0xbcf5a248	-0.029984608
236	0xbe0fe715	-0.14052995
237	0xbde52ab2	-0.11189784
238	0x3e688ccb	0.22709958
239	0xbe6168ce	-0.22012636
240	0xbd956d4b	-0.072962366
241	0xbea630e3	-0.32459173
242	0xbdea9bdc	-0.11455509
243	0xbe2b004b	-0.1669933
244	0xbe816a14	-0.25276244
245	0xbe3b394b	-0.18283574
246	0xbe7e7a11	-0.24851252
247	0x3d513da9	0.051084194
248	0xbed03af5	-0.4066998
249	0xbdb69a8d	-0.08916197
250	0x3eed166d	0.46306172
251	0xbd36c42e	-0.044620685
252	0xbc47b575	-0.012189259
253	0x3e8fe985	0.2810785
254	0xbe16f635	-0.14742358
255	0xbe7c0f61	-0.24615242

sequential_3/conv2d_14/Conv2D f4 [20, 3, 3, 40]
0	0xbdb3191f	-0.08745026
1	0xbcf435a0	-0.029810727
2	0xbc960ac0	-0.018315673
3	0x3dcdb67b	0.10044571
4	0xbc98e649	-0.018664496
5	0xbddf67d3	-0.10908475
6	0xbd884734	-0.06654206
7	0xbc345e99	-0.011008882
8	0x3d292d68	0.04130307
9	0xbb1bb707	-0.0023760216
10	0xbdd65ca1	-0.10466886
11	0x3d9db9a4	0.07701424
12	0xbdc559a5	-0.09636239
13	0xbdb25e68	-0.08709413
14	0x3d037cd1	0.032101456
15	0x3d894f69	0.067045994
16	0xbe1e9199	-0.15485229
17	0xbd197e12	-0.037473746
18	0x3cd1d6d6	0.025615137
19	0xbde3855f	-0.11109423
20	0x3d0dd10f	0.034623202
21	0x3d409509	0.04701713
22	0xbe26886e	-0.16262981
23	0x3d1f658b	0.0389152
24	0xbd945288	-0.07242304
25	0x3c800053	0.015625155
26	0x3c750573	0.0149549125
27	0x3d386add	0.045023788
28	0x3ceee1df	0.029160438
29	0xbbaebdc6	-0.0053326814
30	0xbd90cf5b	-0.070708
31	0xbd8b9eac	-0.06817374
32	0x3d370c5b	0.044689517
33	0x3b9d7af5	0.0048059174
34	0x3db5a501	0.088693626
35	0xbd0c5182	-0.03425742
36	0xbda69d41	-0.081354626
37	0xbdcba420	-0.09943414
38	0x3d050a92	0.032480784
39	0x3db45503	0.08805277
40	0xbd956d44	-0.072962314
41	0x3d6fcc27	0.058544304
42	0xbcc6826f	-0.024232117
43	0x3db87503	0.09006693
44	0x3c297221	0.010342152
45	0xbdc15ba3	-0.094413064
46	0x3cd9541c	0.026529364
47	0x3b844e9e	0.004037692
48	0x3c04814e	0.008087469
49	0x3d3b332f	0.04570311
50	0x3d92cc02	0.07167818
51	0xbd39d075	-0.045364816
52	0xbd1a9148	-0.037736207
53	0x3d2877ea	0.041129984
54	0xbd207d7c	-0.03918217
55	0xbdd0da2a	-0.101978615
56	0xbd46ce25	-0.04853644
57	0x3d607a05	0.054803867
58	0xbda75cba	-0.08171983
59	0xbd93b564	-0.07212332
60	0x3d3dded5	0.046355087
61	0x3db9924f	0.09061109
62	0xbdc98efd	-0.09841726
63	0xbdc1887f	-0.09449863
64	0xbd3ef42b	-0.046619575
65	0x3da1ff81	0.07910062
66	0x3b3bd72a	0.0028662183
67	0x3dcbaf55	0.09945551
68	0xbd4f94c6	-0.05067899
69	0x3c2f63b7	0.010704926
70	0x3d23b395	0.039966185
71	0x3d878f51	0.06619132
72	0xbd927731	-0.0715164
73	0xbdcbf770	-0.09959304
74	0xbd88b01b	-0.066742145
75	0xbdc0ae7c	-0.0940828
76	0x3d96f542	0.07370998
77	0xbde8f044	-0.11373952
78	0x3b98e595	0.00466604
79	0xbd895d6d	-0.06707273
80	0xbddf58c1	-0.109056
81	0xbd02be00	-0.03191948
82	0xbd17b0ad	-0.037033726
83	0x3da37ab8	0.07982391
84	0x3d07e36b	0.033175867
85	0x3d472ecb	0.04862861
86	0xbdf884bf	-0.12134694
87	0xbd7ff73a	-0.062491633
88	0xbdc44f9d	-0.095854975
89	0x3ce0977c	0.027415983
90	0xbd2cf43a	-0.0422251
91	0x3cce1334	0.025155641
92	0xbdf35af5	-0.11882583
93	0x3d5f4612	0.054510184
94	0x3d23c9a2	0.039987214
95	0x3d968557	0.07349651
96	0xbd87b929	-0.06627113
97	0xbd3023c9	-0.043002877
98	0xbd106e38	-0.035261363
99	0xbdc0b60b	-0.09409722
100	0x3d3c7c45	0.04601695
101	0xbcb06fe7	-0.021537734
102	0xbc95fe41	-0.018309714
103	0x3d758e5d	0.05995022
104	0x3d9776bf	0.07395696
105	0x3d4ee831	0.050514404
106	0xbd8248b9	-0.06361527
107	0x3dc441c4	0.09582856
108	0x3d968787	0.073500685
109	0x3d81305e	0.063080534
110	0x3cf241c5	0.029572377
111	0x3d40994c	0.047021195
112	0xbc79485b	-0.015215005
113	0x3d738d91	0.05946118
114	0xbd8603ec	-0.06543717
115	0x3dbd5ecc	0.09246597
116	0x3cc12a85	0.023579845
117	0xbd889422	-0.06668879
118	0xbd29a5d8	-0.041417927
119	0xbd971792	-0.073775426
120	0xbdb01e74	-0.085995585
121	0x3da8124b	0.08206614
122	0xbc808705	-0.015689382
123	0xbdb3f6c7	-0.087873034
124	0xbdb42b2b	-0.08797296
125	0xbca2a858	-0.019855663
126	0x3ce303e2	0.027711812
127	0xbdfa49e8	-0.12221128
128	0xbdb63272	-0.088963404
129	0xbda57952	-0.08079781
130	0xbd90f4ad	-0.07077918
131	0x3b0f3c26	0.002185592
132	0xbc20a067	-0.009803868
133	0x3d8d57cf	0.06901514
134	0x3dc6cc8a	0.097069815
135	0x3d25dab0	0.04049176
136	0x3d1a5ce7	0.037686255
137	0xbe2c5ac2	-0.16831496
138	0xbd893b55	-0.0670077
139	0xbc49a526	-0.012307441
140	0x3d53fab2	0.051752754
141	0xbdaede08	-0.08538443
142	0xbb343948	-0.0027499963
143	0x3d2f75cd	0.042836953
144	0x3d838768	0.06422311
145	0xbcbfce5d	-0.023413831
146	0xbcbfdf55	-0.023421923
147	0xbd7c7cfa	-0.061642624
148	0xbd0e569f	-0.034750577
149	0xbdc19347	-0.09451919
150	0xbe023405	-0.12715156
151	0x3d42a58a	0.04752115
152	0xbd5716e7	-0.052512076
153	0xbd158728	-0.03650585
154	0xbbd98ae9	-0.006638874
155	0x3d19e939	0.037575934
156	0x3d9ce46d	0.07660756
157	0xbdd4ece0	-0.10396743
158	0x3d3ea176	0.0465407
159	0xbcce957a	-0.02521776
160	0xbcd19b0a	-0.025586624
161	0x3cd7e4f5	0.026354292
162	0xbc1764dc	-0.009240355
163	0x3d96c667	0.07362061
164	0xbddfe7fd	-0.1093292
165	0xbd4ef280	-0.050524235
166	0xbd995eb4	-0.07488766
167	0xbd774534	-0.06036873
168	0x3c474ab9	0.012163811
169	0xbdc24f72	-0.09487809
170	0x3da94cc8	0.08266598
171	0xbd4b2111	-0.04959208
172	0xbc006f44	-0.007839028
173	0x3d865c5f	0.06560587
174	0xbdd8e172	-0.10589875
175	0x3d182d4d	0.037152577
176	0xbbaafb25	-0.005217927
177	0xbdbc62af	-0.0919851
178	0x3b0ebbdd	0.0021779456
179	0xbd69c18f	-0.057069357
180	0x3b11eba9	0.0022265709
181	0xbd561a10	-0.05227095
182	0xbdd53601	-0.10410691
183	0x3dca563b	0.098797284
184	0x3d08222d	0.033235718
185	0xbc8d5345	-0.01725162
186	0xbdb4ae12	-0.08822264
187	0xbdb3295f	-0.08748125
188	0x3cdbc0f6	0.02682541
189	0x3d0b509d	0.034012426
190	0xbda58f89	-0.08084018
191	0xbce4ccfb	-0.027929774
192	0xbc9276a9	-0.017878847
193	0x3d85b0ae	0.065278396
194	0xbd424262	-0.04742659
195	0xbcdc71ac	-0.026909672
196	0x3b9f68f6	0.0048648072
197	0xbc9843ec	-0.018587075
198	0x3c9f3bcc	0.019437693
199	0x3cf722f1	0.030168029
200	0xbdbd65ab	-0.09247907
201	0x3d917f19	0.0710432
202	0xbcdc846f	-0.026918618
203	0xbdaf72d2	-0.08566822
204	0xbda2bb64	-0.07945898
205	0x3cd858bb	0.026409497
206	0xbd82a0a1	-0.06378294
207	0xbdfb6ccc	-0.12276611
208	0xbda44993	-0.08021846
209	0x3d09164d	0.033468533
210	0x3da3d469	0.079994984
211	0xbddd08dd	-0.10792706
212	0xbdb4ee42	-0.088345066
213	0x3d1922f2	0.037386842
214	0xbd3e530b	-0.046465915
215	0x3d20b6b2	0.03923673
216	0xbdfbb382	-0.12290098
217	0xbcd872d3	-0.02642194
218	0x3d1efba1	0.03881419
219	0xbe04494b	-0.12918584
220	0xbd90d255	-0.07071368
221	0xbd99b32e	-0.07504879
222	0xbd1e51f6	-0.038652383
223	0x3cc6a762	0.024249736
224	0xbde29b31	-0.11064757
225	0xbd454646	-0.04816272
226	0xbda22a7e	-0.07918261
227	0x3d94ef5b	0.07272216
228	0x3d4e4f28	0.050368458
229	0xbc8b1a8f	-0.016980438
230	0xbde7c3a0	-0.113166094
231	0xbd03d4ba	-0.032185294
232	0x3c1e932c	0.009678643
233	0x3ca2a39e	0.01985341
234	0xbbdd642a	-0.0067563253
235	0x3d33054b	0.04370622
236	0x3bcbdddb	0.0062215156
237	0xbc375c87	-0.011191494
238	0xbd80142f	-0.0625385
239	0xbc713bde	-0.014723746
240	0xbdbaab3c	-0.091146916
241	0xbd75ae42	-0.05998064
242	0xbcf0b2e3	-0.029382175
243	0x3daa49b3	0.08314838
244	0xbd912f01	-0.070890434
245	0xbd9580d0	-0.0729996
246	0xbd84155b	-0.06449386
247	0x3c39b475	0.011334528
248	0xbdfb58b9	-0.12272782
249	0x3d99bd1d	0.075067736
250	0x3d499c6a	0.049221434
251	0xbdc415d6	-0.095744774
252	0xbd9ce166	-0.07660179
253	0xbda144a8	-0.07874423
254	0xbdbf4d12	-0.09340872
255	0x3d7633fa	0.060108162

sequential_3/dense_7/BiasAdd/ReadVariableOp f4 [2]
0	0xbd7043a3	-0.058658253
1	0x3d70438e	0.058658175

sequential_3/dense_6/BiasAdd/ReadVariableOp f4 [10]
0	0x3e0d34dc	0.13789696
1	0x3e7cd4c9	0.24690546
2	0x3d247f0b	0.04016022
3	0xbdf3e0da	-0.119081214
4	0x3ea11ecf	0.31468818
5	0x3d35b54a	0.044362344
6	0xbcac3edd	-0.02102607
7	0x3c2448ae	0.010027094
8	0xbce3b1a1	-0.027794661
9	0xbd0131a8	-0.031541497

sequential_3/dense_6/MatMul f4 [10, 80]
0	0xbe2df9ae	-0.16989776
1	0x3def3fb8	0.11682075
2	0xbdee04fb	-0.11622044
3	0x3e15c59c	0.14626163
4	0xbd5337a4	-0.051566735
5	0x3e3f85aa	0.18703333
6	0xbe572496	-0.2101005
7	0xbe56122e	-0.20905373
8	0xbd89e03e	-0.06732224
9	0x3c8246d9	0.015902923
10	0xbf0382ad	-0.5137127
11	0xbe0c0cb0	-0.13676715
12	0x3dcfebec	0.101524204
13	0xbd964a72	-0.07338418
14	0x3e74367c	0.23848909
15	0x3e7205a1	0.2363496
16	0x3c8a9c98	0.016920373
17	0xbd928b9f	-0.07155537
18	0x3d017bdc	0.031612262
19	0xbd2adf59	-0.041716907
20	0x3d96754c	0.07346591
21	0x3e5890de	0.21149012
22	0xbdd8ae84	-0.10580161
23	0xbc38c0aa	-0.011276403
24	0x3e0d01fd	0.1377029
25	0x3d113230	0.035448253
26	0xbe5c34c5	-0.21504505
27	0xbe0223c3	-0.12708955
28	0x3e84070d	0.2578663
29	0x3f306fd3	0.6892063
30	0xbe8ca62f	-0.27470538
31	0x3e2ce8e4	0.16885716
32	0xbdf31218	-0.118686855
33	0xbdc12887	-0.09431558
34	0xbdb726d2	-0.08942951
35	0x3cf1001a	0.029418994
36	0xbded1f63	-0.11578252
37	0xbd17e8ae	-0.037087135
38	0xbdecf644	-0.11570409
39	0xbd8d2962	-0.06892659
40	0xbd9fd232	-0.078037634
41	0xbe299f88	-0.16564763
42	0x3dd2ed03	0.10299113
43	0x3e25bc89	0.16185202
44	0xbdeb52f1	-0.11490429
45	0x3e849238	0.25892806
46	0xbe352240	-0.17688847
47	0xbd035d40	-0.032071352
48	0xbe67976f	-0.22616361
49	0x3ef53add	0.47896472
50	0xbf58dfca	-0.84716475
51	0xbe3952ad	-0.18097945
52	0xbe153df5	-0.14574416
53	0x3e097268	0.13422549
54	0x3e4bfc4a	0.1992046
55	0x3e890f3a	0.2676943
56	0x3d5de0ee	0.054169588
57	0xbcd32b51	-0.02577749
58	0x3e6be96e	0.23038265
59	0xbec915cf	-0.3927445
60	0xbdea6d2e	-0.114466056
61	0x3e699db4	0.22814065
62	0x3cc79809	0.024364488
63	0xbdf24669	-0.11829836
64	0xbd0e29b0	-0.034707725
65	0xbdf00453	-0.11719575
66	0xbd848cd3	-0.064721726
67	0x3e17ff72	0.14843538
68	0x3e3fe35e	0.18739077
69	0x3f38db31	0.7220946
70	0xbefb2718	-0.49053264
71	0x3de6838f	0.112555616
72	0xbb8d7575	-0.0043169805
73	0xbe8079d2	-0.25092942
74	0x3e6ea1d8	0.23303926
75	0xbd8c1ad8	-0.068410575
76	0xbe25c660	-0.16188955
77	0x3d9a340e	0.0752946
78	0xbdb48179	-0.088137574
79	0xbce638dc	-0.028103285
80	0xbcdf83a0	-0.027284443
81	0xbe41b2f2	-0.18915918
82	0xbe310604	-0.17287451
83	0x3eb4029d	0.35158244
84	0xbe2e624e	-0.17029688
85	0xbdaac90c	-0.08339128
86	0xbdc47307	-0.09592252
87	0x3e041798	0.12899625
88	0x3dfcadcc	0.123378366
89	0xbe418b13	-0.18900709
90	0x3e07fffe	0.13281247
91	0x3e8af06d	0.27136555
92	0x3e487d44	0.19579035
93	0x3e3489a4	0.1763063
94	0x3e34629c	0.17615741
95	0xbea518c2	-0.3224545
96	0xbd9acd7e	-0.07558726
97	0xbd3e0a8d	-0.04639678
98	0xbe16dc14	-0.1473239
99	0xbde63702	-0.11240961
100	0x3e504941	0.20340444
101	0x3d7efc54	0.062252358
102	0xbe35d1dc	-0.17755836
103	0x3e96f951	0.29487088
104	0xbe067242	-0.13129523
105	0xbd86847e	-0.0656824
106	0x3e30c24b	0.17261617
107	0xbe5c9b93	-0.21543722
108	0x3e01160e	0.1260607
109	0xbd0b2560	-0.03397119
110	0xbefa2892	-0.48859078
111	0xbd39ae43	-0.045332205
112	0xbdb0bd63	-0.08629873
113	0xbe58c2d1	-0.21168067
114	0xbd2a6830	-0.041603267
115	0xbe9c8e3f	-0.30577275
116	0x3e17360a	0.14766708
117	0x3e1ee941	0.15518667
118	0x3dba1324	0.09085682
119	0x3e5f9218	0.21833074
120	0x3de862f8	0.11347002
121	0x3e714713	0.23562269
122	0xbecfe50d	-0.4060444
123	0xbc39769b	-0.011319782
124	0xbda8c008	-0.08239752
125	0x3c9056c2	0.017619494
126	0xbea16b30	-0.3152709
127	0xbd666b47	-0.05625465
128	0x3cd6e1a5	0.026230643
129	0xbeebc1c6	-0.46046275
130	0xbdc92875	-0.0982217
131	0x3d282b31	0.041056816
132	0xbe71532c	-0.23566884
133	0xbede9066	-0.43469542
134	0xbe52eaa0	-0.20597315
135	0xbe4376d8	-0.19088304
136	0xbe373c10	-0.17894006
137	0x3e644de5	0.2229534
138	0xbca11020	-0.01966101
139	0x3e8f245b	0.27957425
140	0x3e14b0d2	0.14520577
141	0x3e6fcb67	0.23417436
142	0xbe7ddf40	-0.24792194
143	0x3e20fc31	0.15721203
144	0x3e86f918	0.26361918
145	0xbe80334a	-0.2503913
146	0x3dc35038	0.09536785
147	0x3d8d7f70	0.069090724
148	0xbe388ee3	-0.18023257
149	0x3d35858d	0.044316817
150	0xbe97a962	-0.29621416
151	0x3d71a6f6	0.058997117
152	0xbdba8056	-0.091065094
153	0xbeee4477	-0.4653661
154	0x3df42ca0	0.11922574
155	0xbdfd6410	-0.12372601
156	0x3d3e0385	0.046390075
157	0x3c96da4d	0.01841464
158	0x3d1d8b16	0.03846272
159	0x3d8ef10d	0.069795705
160	0xbe426fa8	-0.18987906
161	0xbdb213ba	-0.08695169
162	0xbead8179	-0.33887842
163	0x3e21c1b0	0.15796542
164	0xbd2f38dd	-0.04277884
165	0xbd7e102a	-0.062027134
166	0xbe2279cd	-0.15866776
167	0x3e012e2e	0.12615272
168	0xbdf5cfab	-0.120025
169	0xbe58017a	-0.21094313
170	0xbe81d059	-0.2535427
171	0x3e480338	0.19532478
172	0x3e2ba8ef	0.16763662
173	0x3da3bdb6	0.07995169
174	0x3c88da40	0.016705632
175	0x3aa2be1c	0.0012416276
176	0xbdbccf9e	-0.09219287
177	0x3e5779fe	0.2104263
178	0xbe2f993f	-0.17148302
179	0xbd8eeeef	-0.06979167
180	0x3e34a501	0.17641069
181	0x3cda817d	0.026673073
182	0xbe5a0933	-0.21292572
183	0x3e384269	0.17994083
184	0x3d0266a0	0.031836152
185	0xbc55aa42	-0.013041081
186	0xbde6ab9d	-0.112632014
187	0xbdd9bea6	-0.106320664
188	0x3e05daf7	0.1307181
189	0xbe4cc6a4	-0.1999765
190	0x3dd9e174	0.10638705
191	0xbdecb444	-0.115578204
192	0x3d4c9f0e	0.049956374
193	0x3e3d2cbc	0.18474096
194	0xbdcfff00	-0.10156059
195	0x3e04fb6f	0.1298654
196	0xbdc311a1	-0.09524847
197	0x3e70deb5	0.23522456
198	0x3c0f3021	0.008739502
199	0xbe6309de	-0.22171733
200	0x3e152201	0.14563753
201	0xbe538959	-0.20657863
202	0xbe8239f0	-0.25434828
203	0x3e957649	0.29191807
204	0xbe713162	-0.23553994
205	0x3db75035	0.08950845
206	0xbd2b3690	-0.04180008
207	0xbdac56ff	-0.08415031
208	0xbd89f0c4	-0.067353755
209	0xbccecbb5	-0.02524362
210	0xbef662a9	-0.48122147
211	0x3e6ac986	0.22928438
212	0x3e571e1b	0.21007578
213	0xbdd0b2bf	-0.10190343
214	0xbdce8433	-0.10083809
215	0x3d4bac04	0.049724594
216	0x3e9844ab	0.2973989
217	0x3de400f0	0.11132991
218	0xbdb7da29	-0.089771576
219	0x3e2fcf75	0.17168982
220	0xbd856a18	-0.065143764
221	0xbc470169	-0.012146332
222	0x3d4720f1	0.0486154
223	0x3e6750ec	0.22589463
224	0xbda1ca5e	-0.078999266
225	0xbdc0ae15	-0.094082035
226	0x3dbc025b	0.09180137
227	0x3dda5258	0.10660237
228	0x3d343990	0.04400021
229	0xbf08b732	-0.53404534
230	0xbeb78109	-0.35840634
231	0xbc2b3428	-0.010449447
232	0xbc9478a9	-0.018123941
233	0x3dffe650	0.124951005
234	0x3dcc4c78	0.09975523
235	0xbea75734	-0.32683718
236	0x3da46b00	0.08028221
237	0x3d379abc	0.0448253
238	0xbd2b1c63	-0.04177512
239	0x3e61e612	0.22060421
240	0x3da486bf	0.08033513
241	0x3e51884f	0.20462154
242	0xbda78be5	-0.0818098
243	0xbe377cec	-0.17918748
244	0x3e03529f	0.12824486
245	0xbdc29f64	-0.095030576
246	0x3ce3446f	0.027742593
247	0x3ce2bd90	0.027678281
248	0x3ccea14f	0.025223402
249	0xbb82d353	-0.003992477
250	0xbdf88055	-0.121338524
251	0x3dcd6199	0.10028381
252	0x3e6b376a	0.22970358
253	0xbdd73a24	-0.10509136
254	0x3db56c74	0.088585764
255	0x3da18ec1	0.07888556

sequential_3/dense_7/MatMul f4 [2, 10]
0	0x3d3fc2f2	0.046816774
1	0xbf838995	-1.0276362
2	0xbdb7356e	-0.08945738
3	0xbec4995b	-0.3839825
4	0xbf4f43fc	-0.8096311
5	0xbe891c45	-0.2677938
6	0x3edcc154	0.43116248
7	0x3e9f7eb7	0.31151363
8	0xbe8261e5	-0.25465313
9	0xbe8f323b	-0.2796801
10	0xbf6af37f	-0.91777796
11	0x3eb430f9	0.35193613
12	0x3e9373d9	0.28799322
13	0x3ee13c7c	0.43991458
14	0xbe5cae0c	-0.21550769
15	0x3e81b576	0.25333756
16	0xbc6cf3a4	-0.014462385
17	0xbf52554d	-0.8216141
18	0xbf0bb9e5	-0.5458053
19	0xbea720ed	-0.32642308
